Model
________________________________________________________________________________
Layer (type)                        Output Shape                    Param #     
================================================================================
dense_8 (Dense)                     (None, 200)                     200200      
________________________________________________________________________________
dropout_6 (Dropout)                 (None, 200)                     0           
________________________________________________________________________________
dense_9 (Dense)                     (None, 200)                     40200       
________________________________________________________________________________
dropout_7 (Dropout)                 (None, 200)                     0           
________________________________________________________________________________
dense_10 (Dense)                    (None, 200)                     40200       
________________________________________________________________________________
dropout_8 (Dropout)                 (None, 200)                     0           
________________________________________________________________________________
dense_11 (Dense)                    (None, 5)                       1005        
================================================================================
Total params: 281,605
Trainable params: 281,605
Non-trainable params: 0
________________________________________________________________________________


