Model
________________________________________________________________________________
Layer (type)                        Output Shape                    Param #     
================================================================================
dense_10 (Dense)                    (None, 400)                     400400      
________________________________________________________________________________
dropout_8 (Dropout)                 (None, 400)                     0           
________________________________________________________________________________
dense_11 (Dense)                    (None, 400)                     160400      
________________________________________________________________________________
dropout_9 (Dropout)                 (None, 400)                     0           
________________________________________________________________________________
dense_12 (Dense)                    (None, 400)                     160400      
________________________________________________________________________________
dropout_10 (Dropout)                (None, 400)                     0           
________________________________________________________________________________
dense_13 (Dense)                    (None, 400)                     160400      
________________________________________________________________________________
dropout_11 (Dropout)                (None, 400)                     0           
________________________________________________________________________________
dense_14 (Dense)                    (None, 5)                       2005        
================================================================================
Total params: 883,605
Trainable params: 883,605
Non-trainable params: 0
________________________________________________________________________________


