Model
________________________________________________________________________________
Layer (type)                        Output Shape                    Param #     
================================================================================
dense_3 (Dense)                     (None, 400)                     200400      
________________________________________________________________________________
dropout_2 (Dropout)                 (None, 400)                     0           
________________________________________________________________________________
dense_4 (Dense)                     (None, 400)                     160400      
________________________________________________________________________________
dropout_3 (Dropout)                 (None, 400)                     0           
________________________________________________________________________________
dense_5 (Dense)                     (None, 5)                       2005        
================================================================================
Total params: 362,805
Trainable params: 362,805
Non-trainable params: 0
________________________________________________________________________________


