Model
________________________________________________________________________________
Layer (type)                        Output Shape                    Param #     
================================================================================
dense (Dense)                       (None, 400)                     400400      
________________________________________________________________________________
dropout (Dropout)                   (None, 400)                     0           
________________________________________________________________________________
dense_1 (Dense)                     (None, 400)                     160400      
________________________________________________________________________________
dropout_1 (Dropout)                 (None, 400)                     0           
________________________________________________________________________________
dense_2 (Dense)                     (None, 5)                       2005        
================================================================================
Total params: 562,805
Trainable params: 562,805
Non-trainable params: 0
________________________________________________________________________________


